model/model.pth (torch, 17216 bytes, 4 tensors)

linear1.weight f4 [256, 11]
0.12217076 0.010804861 0.17949188 -0.054143876 -0.06884879 0.039717652 -0.071937285 0.18241632
0.36652353 0.008776798 0.050196797 0.06534887 -0.31833127 0.1357748 0.31305367 0.13854547
0.20026743 -0.19083767 -0.23527737 -0.4586754 0.072242096 -0.11059201 -0.10096035 0.14712971
-0.079910025 0.06506038 0.25876606 0.17304848 -0.06819652 -0.029359123 -0.3549059 -0.2822835
0.03997813 -0.2787335 0.027945613 -0.35243583 0.13279225 0.20932935 -0.18837231 -0.1576433
0.29493204 0.14458992 0.008789893 -0.08371192 -0.072833814 -0.06291581 0.14600097 -0.05190023
0.100323506 0.0073609124 -0.012482487 -0.116324514 0.19194748 0.041083854 -0.109389365 0.008567386
-0.3079295 -0.15655047 0.06346264 -0.0049473247 0.043425392 -0.03626447 -0.104081534 0.50652254
0.05411831 -0.06184966 0.02100878 -0.06390661 -0.07336926 -0.094961576 -0.071894675 -0.076842666
-0.17257169 0.3411836 0.34370983 0.07798077 0.23549639 -0.11271014 -0.048600897 -0.4243695
-0.26331386 -0.38469997 0.033449236 -0.2917805 0.3953905 -0.08805068 -0.02795953 -0.24994284
-0.21845186 0.1459578 -0.33068243 -0.28718233 -0.24686429 -0.14479867 0.088352166 0.19408298
-0.12724991 -0.20478928 -0.25328806 0.089944065 0.33432987 0.26136705 -0.03756274 -0.4814629
-0.1363017 -0.1217353 -0.114998385 0.36577103 -0.030249154 -0.17064182 0.06472804 -0.06036763
0.116015 -0.34112233 -0.09858237 -0.25730193 0.020648401 0.4396213 -0.1308147 0.16453327
0.30015483 0.1344672 -0.2336337 -0.1387921 -0.035307992 -0.16173746 -0.017019887 -0.19811732
0.41371736 -0.18137084 -0.4899607 -0.043716166 -0.072751686 -0.07533215 0.09704752 0.056873064
0.16788004 -0.26018676 0.484056 -0.6671691 -0.02954105 -0.41623917 0.096546404 0.27429113
0.21337418 -0.42068416 0.29404402 0.23164271 -0.3988487 0.12470789 0.2991717 -0.07571745
-0.43147054 -0.1381289 -0.41564965 -0.075121775 0.19629441 -0.38447925 -0.11394974 0.18248355
-0.061516944 0.4582133 0.45094013 -0.3699746 -0.21724884 0.32029444 0.11234214 -0.04918951
-0.0021579326 -0.19962919 -0.062928826 0.34997848 0.51765156 0.33309335 0.12580797 0.029917229
-0.2665857 0.14785215 0.040323727 -0.18940446 -0.2564188 -0.28250593 -0.27960575 -0.0513704
0.093665086 -0.20531674 -0.11472284 0.1858369 -0.09151189 0.059908323 -0.006815426 -0.12661391
0.37266043 -0.039161656 0.0077839517 0.11550313 0.068262406 0.3265306 0.094827875 0.29175684
0.11591312 -0.28164008 -0.021436816 -0.24546264 -0.03797999 0.32135832 -0.16715945 0.23179604
0.06710722 0.07715643 -0.063271455 0.33660588 -0.05842197 -0.2669671 -0.18374616 0.079183005
0.17424648 0.48585233 0.3084619 -0.16788961 0.10223228 0.03921686 -0.11509145 0.4624839
-0.51161164 0.10974403 -0.26237214 0.25289756 -0.56128013 -0.4915896 -0.107643455 -0.32419235
0.18616784 -0.1796376 0.07916338 -0.08731189 0.08794425 0.19154428 -0.28373432 -0.11547341
0.20462132 0.0028258844 -0.027549686 -0.10057509 0.1255603 -0.09421812 -0.009396344 0.080999844
0.102841765 0.45969766 0.3316852 0.013460756 -0.08609961 -0.060964737 0.033045612 -0.1431682
00000000: aa34 fa3d df06 313c b8cc 373e f8c5 5dbd
00000010: 9800 8dbd faae 223d db53 93bd 58cb 3a3e
00000020: f9a8 bb3e 8fcc 0f3c 289b 4d3d a1d5 853d
00000030: 51fc a2be 8d08 0b3e 9248 a03e ddde 0d3e
00000040: e812 4d3e f36a 43be 8dec 70be 81d7 eabe
00000050: aaf3 933d 107e e2bd 4dc4 cebd 2ca9 163e
00000060: dea7 a3bd 603e 853d fc7c 843e 9f33 313e
00000070: 9eaa 8bbd 8b82 f0bc 3ab6 b5be 7787 90be
00000080: 1cc0 233d 28b6 8ebe 33ee e43c 7872 b4be
00000090: b1fa 073e 6f5a 563e ace4 40be 3f6d 21be
000000a0: 5501 973e 610f 143e 7c03 103c 2871 abbd
000000b0: e529 95bd 01da 80bd 4781 153e 5695 54bd
000000c0: 6976 cd3d cf33 f13b 5883 4cbc 8c3b eebd
000000d0: e18d 443e 8b47 283d 8807 e0bd 395e 0c3c
000000e0: efa8 9dbe c44e 20be b3f8 813d 2b1d a2bb
000000f0: d3de 313d 0e8a 14bd b328 d5bd 76ab 013f
00000100: 29ab 5d3d 1256 7dbd 9b1a ac3c 78e1 82bd
00000110: 9f42 96bd 377b c2bd 843d 93bd b05f 9dbd
00000120: a2b6 30be 9eaf ae3e bcfa af3e 62b4 9f3d
00000130: f725 713e 93d4 e6bd bc11 47bd f646 d9be
00000140: 13d1 86be 65f7 c4be 1102 093d 4164 95be
00000150: a070 ca3e ea53 b4bd 620b e5bc 04f1 7fbe
00000160: d8b1 5fbe f675 153e 354f a9be 9009 93be
00000170: fec9 7cbe 1a46 14be fbf1 b43d b0bd 463e
00000180: cd4d 02be 48b4 51be f9ae 81be 9834 b83d
00000190: 492d ab3e e7d1 853e 63db 19bd 4e82 f6be
000001a0: ac92 0bbe 5b50 f9bd 4684 ebbd 5746 bb3e
000001b0: 13cd f7bc bbbc 2ebe 2290 843d 0c44 77bd
000001c0: 4699 ed3d 96a7 aebe 8ee5 c9bd 14bd 83be
000001d0: d626 a93c 0b16 e13e 4af4 05be 697b 283e
000001e0: e5ad 993e c5b1 093e ac3d 6fbe 841f 0ebe
000001f0: 1d9f 10bd 819e 25be 4a6d 8bbc 44df 4abe
00000200: c3d2 d33e 47b9 39be 21dc fabe b90f 33bd
00000210: d6fe 94bd be47 9abd dac0 c63d bbf3 683d
00000220: bfe8 2b3e 3337 85be 30d6 f73e 98cb 2abf
00000230: 1200 f2bc 4d1d d5be 1fba c53d e36f 8c3e
00000240: c37e 5a3e ea63 d7be f08c 963e bf33 6d3e
00000250: e635 ccbe da66 ff3d 082d 993e c011 9bbd
00000260: b5e9 dcbe aa71 0dbe 08d0 d4be 72d9 99bd
00000270: 6701 493e 77da c4be 7b5e e9bd f8dc 3a3e
00000280: 31f9 7bbd ef9a ea3e a0e1 e63e 506d bdbe
00000290: 7b76 5ebe a2fd a33e a313 e63d f17a 49bd
000002a0: 1a6c 0dbb 986b 4cbe d4e0 80bd 6130 b33e
000002b0: d084 043f 368b aa3e ced3 003e fa14 f53c
000002c0: ec7d 88be 8e66 173e 7e2a 253d 3ef3 41be
000002d0: 5349 83be 9ea4 90be 7c28 8fbe c569 52bd
000002e0: 7bd3 bf3d 8d3e 52be cff3 eabd 074c 3e3e
000002f0: 966a bbbd 6e62 753d f053 dfbb 14a7 01be
00000300: 59cd be3e f967 20bd 8510 ff3b e88c ec3d
00000310: 29cd 8b3d 052f a73e 1e35 c23d 2761 953e
00000320: dc63 ed3d 2133 90be 439c afbc 8f5a 7bbe
00000330: e890 1bbd 1489 a43e d92b 2bbe f15b 6d3e
00000340: 836f 893d 3104 9e3d 7794 81bd 9b57 ac3e
00000350: e04b 6fbd e9af 88be f427 3cbe b32a a23d
00000360: ab6d 323e a3c1 f83e b8ee 9d3e 41eb 2bbe
00000370: 285f d13d dca1 203d 11b5 ebbd b1ca ec3e
00000380: fbf8 02bf 7ac1 e03d a455 86be ca7b 813e
00000390: 0eb0 0fbf a2b1 fbbe 2c74 dcbd 8afc a5be
000003a0: c8a2 3e3e ebf2 37be 6920 a23d 94d0 b2bd
000003b0: 1d1c b43d 2f24 443e a045 91be 537d ecbd
000003c0: 4088 513e 7932 393b e1af e1bc 50fa cdbd
000003d0: e192 003e 6ef5 c0bd 20f3 19bc 3fe3 a53d
000003e0: b49e d23d 7e5d eb3e a4d2 a93e 818a 5c3c
000003f0: fe54 b0bd 29b6 79bd d65a 073d af9a 12be

linear1.bias f4 [256]
-0.101305135 0.17054312 0.43990812 0.15505728 -0.36775288 -0.12310969 -0.057747297 -0.065836094
-0.12081219 0.011736318 -0.1427062 0.08836729 0.13909273 -0.13609773 0.0853806 -0.25819466
-0.016477022 -0.3615867 -0.14405765 -0.21464276 0.109206356 0.19190781 0.109785706 0.042607613
0.34794813 0.039658554 0.2539856 0.13574164 -0.19497421 0.07459588 0.37574992 -0.16273636
0.10455354 -0.008435558 0.014923253 -0.033320274 0.017930716 0.07141881 -0.12627666 -0.20541584
0.4310827 0.12669174 -0.18317704 0.18834907 0.028337931 0.12632504 -0.19393094 -0.18893778
-0.061472975 -0.036366694 -0.10708613 -0.22573754 0.2647703 0.05696581 -0.00872694 -0.15737875
0.31944793 -0.17396352 0.079318725 0.12653005 0.16486327 -0.43321413 -0.1655924 -0.2959496
-0.090200506 -0.08270981 -0.23073146 -0.25145474 0.0446426 -0.2975966 0.0579863 -0.05539374
0.00082426757 -0.34360686 -0.1859361 0.14805646 0.08079067 -0.169883 -0.115175515 -0.14468028
-0.29531512 0.025321392 -0.07528285 -0.30087656 -0.008065923 -0.25714472 0.055634096 0.31407726
-0.09541781 -0.0500001 0.43657476 -0.0124955205 -0.12479925 0.08089615 -0.19587004 -0.03659029
0.0847452 -0.107480034 -0.17763984 0.001068943 -0.17766333 -0.18241395 -0.1229663 -0.30521116
-0.03756753 0.13932633 -0.24017102 -0.04043851 -0.2100712 -0.25082374 -0.121844076 0.09802727
-0.21828152 -0.103732646 -0.1593689 0.0770022 0.29202157 0.17623298 -0.15087068 0.13178027
-0.24997523 -0.12340029 -0.2732362 -0.25325483 0.10870538 -0.02191272 -0.14103964 0.2990847
-0.095861815 0.22925927 -0.055082034 0.13675211 0.017199652 -0.22861555 -0.06996148 0.39534637
0.37502122 -0.2569955 -0.34945226 0.07490909 -0.0052836626 0.08163033 -0.0883013 -0.26171997
-0.043990757 0.0024436146 -0.02396544 -0.0015903593 0.23506884 -0.17651995 -0.17129864 -0.23411886
-0.0627316 -0.27857736 -0.22795592 -0.021732628 -0.114927165 -0.12445656 -0.2582703 0.2101826
-0.0948993 -0.12927105 -0.07482994 -0.14371307 -0.27557406 -0.055361565 -0.02178757 0.076668106
-0.26321954 -0.05030181 -0.22838698 0.0008188012 -0.2717109 0.22669643 0.1829774 -0.19408277
0.0006104581 -0.052425303 0.2413473 -0.10971849 0.10577756 0.37717125 0.29470006 0.19070283
-0.13626899 0.22423686 -0.21554354 -0.041371886 -0.10956828 0.21171099 -0.21019481 -0.17896701
-0.023212196 0.18133146 0.19523078 -0.0751692 -0.015558134 -0.24055016 -0.19637176 0.023421869
0.052198794 -0.24925543 -0.22428904 0.1423243 0.018308321 0.21291079 -0.18047296 0.05887384
0.11947704 -0.19239765 -0.0040385257 0.19084162 0.012796404 -0.32115364 -0.27417636 -0.18278097
-0.23047215 0.16880746 -0.07995973 -0.11456526 -0.3339655 -0.21658237 0.08817176 -0.14307962
-0.26257956 -0.32390615 0.2986182 -0.36600974 -0.29681167 -0.2716094 -0.035427127 0.031904116
0.018573716 0.3449344 -0.12773007 -0.12884803 -0.15617907 0.26734552 0.2512392 -0.32467794
-0.4829083 -0.034442723 -0.37248728 0.24367279 -0.09290745 -0.072792076 -0.17462754 0.17161173
-0.15235507 -0.3192669 -0.09959537 -0.24127537 -0.015741583 -0.17211893 0.31928644 -0.10273628
00000000: 1179 cfbd dba2 2e3e a33b e13e 56c7 1e3e
00000010: 1b4a bcbe ef20 fcbd 6e88 6cbd 13d5 86bd
00000020: 626c f7bd af49 403c 9321 12be e9f9 b43d
00000030: 536e 0e3e 345d 0bbe 06dc ae3d 1732 84be
00000040: d2fa 86bc e421 b9be d983 13be 50cb 5bbe
00000050: 95a7 df3d 7b83 443e 54d7 e03d 5285 2e3d
00000060: 4226 b23e 0271 223d 670a 823e dbff 0a3e
00000070: 52a7 47be bac5 983d 4b62 c03e 5ca4 26be
00000080: 2b20 d63d 4b35 0abc a980 743c d77a 08bd
00000090: 70e3 923c 0644 923d ab4e 01be 8858 52be
000000a0: dfb6 dc3e 7bbb 013e c392 3bbe 94de 403e
000000b0: f324 e83c 5a5b 013e d595 46be e878 41be
000000c0: 16cb 7bbd 3ef5 14bd f94f dbbd be27 67be
000000d0: f98f 873e fb54 693d 70fb 0ebc e527 21be
000000e0: ae8e a33e 7e23 32be db71 a23d 1891 013e
000000f0: ebd1 283e 3ece ddbe 0e91 29be b586 97be
00000100: 0bbb b8bd c363 a9bd de44 6cbe adbe 80be
00000110: 29db 363d 955e 98be 0b83 6d3d 8ce4 62bd
00000120: a913 583a 3ded afbe 0866 3ebe 1d9c 173e
00000130: 9475 a53d cff5 2dbe 24e1 ebbd 1127 14be
00000140: 8b33 97be cf6e cf3c e52d 9abd 7e0c 9abe
00000150: ef26 04bc 79a8 83be 94e0 633d bcce a03e
00000160: 6a6a c3bd e8cc 4cbd ba86 df3e 03ba 4cbc
00000170: c096 ffbd e1ac a53d 2892 48be b3df 15bd
00000180: e48e ad3d 7e1e dcbd 38e7 35be c61b 8c3a
00000190: 60ed 35be b9ca 3abe c1d5 fbbd a344 9cbe
000001a0: 69e0 19bd 90ab 0e3e 64ef 75be daa2 25bd
000001b0: e81c 57be f86b 80be 6389 f9bd 85c2 c83d
000001c0: 3185 5fbe c871 d4bd 9a31 23be 54b3 9d3d
000001d0: da83 953e 6b76 343e d87d 1abe 68f1 063e
000001e0: 82f9 7fbe 4bb9 fcbd 9de5 8bbe 9eaa 81be
000001f0: eda0 de3d 4e82 b3bc b26c 10be a121 993e
00000200: 3353 c4bd f1c2 6a3e b39d 61bd bf08 0c3e
00000210: 49e6 8c3c 321a 6abe f747 8fbd d76a ca3e
00000220: c802 c03e ea94 83be 68eb b2be f069 993d
00000230: 9322 adbb cd2d a73d 50d7 b4bd 2900 86be
00000240: a72f 34bd 0d25 203b 2c53 c4bc 9a73 d0ba
00000250: e3b5 703e a5c1 34be e968 2fbe dbbc 6fbe
00000260: 6d79 80bd b1a1 8ebe 476d 69be a008 b2bc
00000270: ef5e ebbd 15e3 febd 013c 84be 1c3a 573e
00000280: 905a c2bd a15f 04be 7140 99bd 8529 13be
00000290: 0b18 8dbe cfc2 62bd d97b b2bc 2b04 9d3d
000002a0: b6c4 86be 4509 4ebd 47de 69be d2a4 563a
000002b0: b11d 8bbe 1c23 683e 6d5e 3b3e a2bd 46be
000002c0: 2607 203a eabb 56bd bf23 773e 16b4 e0bd
000002d0: e8a1 d83d 971c c13e ede2 963e 9a47 433e
000002e0: 198a 0bbe 599e 653e 72b7 5cbe 9175 29bd
000002f0: 5665 e0bd c4ca 583e 4f3d 57be 2143 37be
00000300: 8127 bebc f4ae 393e 94ea 473e 4ff2 99bd
00000310: 8be7 7ebc c852 76be ae15 49be 38df bf3c
00000320: 67ce 553d d13c 7fbe 07ac 65be 76bd 113e
00000330: 55fb 953c 4905 5a3e e7cd 38be b225 713d
00000340: 61b0 f43d e403 45be 9c55 84bb fc6b 433e
00000350: 02a8 513c 406e a4be d860 8cbe ef2a 3bbe
00000360: e400 6cbe dddb 2c3e edc1 a3bd 31a1 eabd
00000370: 87fd aabe c5c7 5dbe 6593 b43d 7783 12be
00000380: d470 86be 07d7 a5be 7ce4 983e a165 bbbe
00000390: b3f7 97be 6310 8bbe 091c 11bd e4ad 023d
000003a0: e827 983c 3e9b b03e accb 02be bdf0 03be
000003b0: 68ed 1fbe 83e1 883e 6da2 803e 303c a6be
000003c0: c23f f7be d013 0dbd a7b6 bebe 5c85 793e
000003d0: 4346 bebd 0314 95bd 90d1 32be fcba 2f3e
000003e0: f802 1cbe f376 a3be a8f8 cbbd e410 77be
000003f0: 7ef4 80bc f23f 30be 8379 a33e 6667 d2bd

linear2.weight f4 [3, 256]
-0.046614155 0.13025789 0.17046238 0.04241381 0.0060065226 -0.018454297 -0.06448244 -0.043291934
-0.015097908 -0.1715348 -0.10433044 0.073629454 0.29793778 0.20855653 -0.5306948 -0.16051258
-0.00022563864 -0.032430977 -0.15989155 -0.26767564 0.26711118 0.12605006 0.0054065003 -0.13541609
0.33450124 -0.47427946 0.23613621 0.12526214 -0.12025834 0.24209721 0.22549722 -0.060308166
0.0948323 -0.2522667 -0.10993693 -0.28558242 -0.073321335 -0.38346043 -0.04874015 -0.18102406
0.11040658 -0.3147349 -0.010167464 0.10630301 -0.15694289 0.10038632 -0.3195606 0.026176555
-0.27265528 -0.2839683 -0.23367201 -0.26896572 0.43604907 -0.23294868 -0.0905187 -0.4386741
0.3489208 0.0041445727 -0.60679585 0.36992323 -0.0063053686 0.0602661 -0.023093373 -0.040917918
-0.5290307 -0.20062439 0.2600566 -0.024797274 0.027574731 -0.016382223 0.408537 -0.02960015
-0.0063334582 -0.18973422 0.0100553185 -0.19875301 -0.085650116 -0.014136851 -0.13346933 -0.10171633
-0.089772314 0.28572592 -0.07807396 -0.2885835 -0.2284128 -0.3180309 -0.044153083 0.36196262
0.4161111 -0.09380773 0.4121051 0.34678933 0.26213512 -0.46640873 -0.13199353 -0.07590129
0.20423715 -0.040368818 -0.24352235 -0.030734845 -0.31408378 -0.25884792 -0.32344848 -0.014284034
-0.07024599 -0.0027205509 0.0103100315 -0.09673466 -0.28433147 -0.08720827 -0.06889641 -0.31434917
-0.19991684 0.18978333 -0.0020073021 -0.2179662 0.04326328 -0.66308826 -0.09601685 0.2937529
-0.080702916 -0.5430803 -0.318161 -0.3635141 0.038463235 -0.62782484 -0.0998963 0.22095907
0.18589373 0.22025402 -0.37554413 0.20515169 0.27080232 -0.08690055 0.16548175 0.087765396
0.21607295 -0.07048336 0.0121560395 -0.02176203 -0.4293749 -0.25040677 -0.08603574 0.014812097
0.31956497 -0.029392263 -0.16977213 0.106706575 0.21323358 -0.10941515 0.21325813 -0.38912103
-0.11876062 -0.20797846 -0.16131406 -0.27459884 0.19542433 -0.23876256 -0.16301858 -0.11119769
0.3749746 0.40785474 0.2444718 -0.50528866 -0.37782454 0.2989911 -0.3081164 -0.10469834
-0.31389338 -0.17962655 -0.06546914 -0.066586316 -0.2756323 -0.055292066 -0.34811237 -0.028761879
-0.50173813 -0.09061181 0.42709553 -0.34055454 -0.17831181 0.15970701 0.2873881 0.40849894
-0.13123797 0.29430035 -0.1786124 0.52357125 -0.4504983 0.26367968 0.055106305 -0.19342789
0.25084704 0.38974062 0.079792954 -0.3476916 -0.2982479 0.016424485 -0.0029190688 0.18538505
-0.39875937 0.030587833 0.106979966 0.113319546 -0.225396 0.1323163 -0.43071017 0.16926195
-0.005335166 0.3968763 -0.413021 0.19176354 0.26232353 -0.18054721 0.12288264 -0.09365563
-0.13041998 -0.022029964 -0.24921809 -0.23185398 -0.01459734 -0.28176668 -0.038505 -0.36550698
0.13780339 -0.15327276 0.3668118 -0.039465856 0.111749396 -0.20129779 0.0898161 0.28378418
0.022996375 0.25789854 -0.18491498 -0.16986866 -0.042686306 0.059514076 0.08446068 0.015545503
-0.19611895 -0.00027736343 0.025189025 0.33505973 -0.09258921 -0.072265044 0.30484253 0.29158875
-0.14361869 -0.33193472 -0.2071531 -0.13920496 0.06670977 -0.044269282 0.32649225 -0.1630851
00000000: 7cee 3ebd 5362 053e b18d 2e3e 1aba 2d3d
00000010: 5dd2 c43b 772d 97bc 5f0f 84bd e252 31bd
00000020: 375d 77bc d2a6 2fbe 33ab d5bd 0acb 963d
00000030: 4d8b 983e d88f 553e 9ddb 07bf 695d 24be
00000040: 6999 6cb9 58d6 04bd 9cba 23be c80c 89be
00000050: ccc2 883e 4413 013e 0329 b13b 84aa 0abe
00000060: bf43 ab3e c2d4 f2be b1cd 713e b844 003e
00000070: 014a f6bd 55e8 773e bee8 663e b205 77bd
00000080: 7037 c23d 1a29 81be 9d26 e1bd dc37 92be
00000090: 7f29 96bd ed54 c4be c0a3 47bd 5f5e 39be
000000a0: d81c e23d ef24 a1be 6f95 26bc 64b5 d93d
000000b0: a3b5 20be 5897 cd3d 729d a3be 3770 d63c
000000c0: 7999 8bbe 4b64 91be b747 6fbe e0b5 89be
000000d0: d341 df3e 198a 6ebe de61 b9bd e499 e0be
000000e0: bfa5 b23e 32cf 873b f956 1bbf 9466 bd3e
000000f0: 449d cebb 96d9 763d 502e bdbc 8c99 27bd
00000100: 8e6e 07bf 7b70 4dbe 2426 853e a723 cbbc
00000110: 67e4 e13c 0334 86bc c32b d13e 047c f2bc
00000120: e688 cfbb b049 42be 10bf 243c e985 4bbe
00000130: 5469 afbd 409e 67bc 2fac 08be a750 d0bd
00000140: 8cda b7bd ab4a 923e 3ee5 9fbd 37c1 93be
00000150: 0ce5 69be f2d4 a2be ddd9 34bd 2a53 b93e
00000160: 840c d53e 441e c0bd 71ff d23e 5f8e b13e
00000170: 9336 863e 20cd eebe 5029 07be 2372 9bbd
00000180: 8b23 513e c659 25bd ec5d 79be a4c7 fbbc
00000190: 97cf a0be b787 84be 0a9b a5be 9507 6abc
000001a0: 21dd 8fbd 454b 32bb 68eb 283c d21c c6bd
000001b0: e593 91be 409a b2bd 9019 8dbd 60f2 a0be
000001c0: 00b7 4cbe 9056 423e f18c 03bb 8832 5fbe
000001d0: d634 313d 27c0 29bf 7ba4 c4bd c866 963e
000001e0: 9247 a5bd 4f07 0bbf 00e6 a2be 851e babe
000001f0: a08b 1d3d 21b9 20bf 6e96 ccbd 1843 623e
00000200: ed5a 3e3e 458a 613e 5247 c0be 4913 523e
00000210: 9aa6 8a3e eaf8 b1bd 0c74 293e 58be b33d
00000220: 3a42 5d3e 9459 90bd 202a 473c 4946 b2bc
00000230: 07d7 dbbe 5135 80be 8233 b0bd 70ae 723c
00000240: 059e a33e 0bc8 f0bc bfd8 2dbe fa88 da3d
00000250: e759 5a3e 0d15 e0bd 5760 5a3e df3a c7be
00000260: c538 f3bd 4ef8 54be 832f 25be 3898 8cbe
00000270: 511d 483e 2c7e 74be 58ee 26be 9dbb e3bd
00000280: acfc bf3e 56d2 d03e d156 7a3e 995a 01bf
00000290: 3872 c1be 5d15 993e 6fc1 9dbe 156c d6bd
000002a0: a2b6 a0be 06f0 37be af14 86bd 685e 88bd
000002b0: ad1f 8dbe ef79 62bd c93b b2be 089e ebbc
000002c0: e971 00bf af92 b9bd 44ac da3e 2a5d aebe
000002d0: 5f97 36be 3c8a 233e 8824 933e c626 d13e
000002e0: 3f63 06be 89ae 963e 2be6 36be c408 063f
000002f0: b7a7 e6be 0601 873e 26b7 613d f611 46be
00000300: 066f 803e 158c c73e 7d6a a33d a204 b2be
00000310: f3b3 98be a48c 863c d94d 3fbb 94d5 3d3e
00000320: 302a ccbe 5693 fa3c 5018 db3d 1414 e83d
00000330: 36ce 66be ed7d 073e 0b86 dcbe 0153 2d3e
00000340: 9ed2 aebb 5f33 cb3e 7d77 d3be a95d 443e
00000350: 454f 863e 5ee1 38be e5a9 fb3d 86ce bfbd
00000360: d18c 05be 2f78 b4bc 0733 7fbe 216b 6dbe
00000370: ae29 6fbc b943 90be 6bb7 1dbd bb23 bbbe
00000380: 551c 0d3e 89f3 1cbe c2ce bb3e f3a6 21bd
00000390: dedc e43d 0221 4ebe 81f1 b73d 294c 913e
000003a0: e562 bc3c 470b 843e 5a5a 3dbe 0df2 2dbe
000003b0: d6d7 2ebd 08c5 733d b9f9 ac3d 91b2 7e3c
000003c0: 68d3 48be 176b 91b9 3759 ce3c f38c ab3e
000003d0: 699f bdbd b2ff 93bd 5214 9c3e 1f4b 953e
000003e0: c710 13be 59f3 a9be f11f 54be bf8b 0ebe
000003f0: 229f 883d b553 35bd fe29 a73e c8ff 26be

linear2.bias f4 [3]
0.1323446 -0.12779927 -0.0063526216
00000000: 5885 073e d0dd 02be a729 d0bb
